…
2019-11-27 00:00:40,780 [MainThread  ] [INFO ]  cfg.TEST.RPN_PRE_NMS_TOP_N: 9000
2019-11-27 00:00:40,780 [MainThread  ] [INFO ]  cfg.TEST.RPN_POST_NMS_TOP_N: 100
2019-11-27 00:00:40,780 [MainThread  ] [INFO ]  cfg.TEST.RPN_NMS_THRESH: 0.8
2019-11-27 00:00:40,780 [MainThread  ] [INFO ]  cfg.TEST.RPN_DISTANCE_BASED_PROPOSE: True
2019-11-27 00:01:36,361 [MainThread  ] [INFO ]  preloading Sample..
2019-11-27 00:02:45,768 [MainThread  ] [INFO ]  Packed Sample preloaded!
2019-11-27 00:02:45,894 [MainThread  ] [INFO ]  PointRCNN(
  (model): DenseModel(
    (AE): DPAutoEncoder(
      (DAE): DPCEncoderDecoder(
        (conv_1): Conv1d(3, 64, kernel_size=(1,), stride=(1,))
        (conv_2): Conv1d(64, 128, kernel_size=(1,), stride=(1,))
        (conv_3): Conv1d(128, 128, kernel_size=(1,), stride=(1,))
        (conv1_1): Conv1d(144, 1024, kernel_size=(1,), stride=(1,))
        (fc1): Linear(in_features=128, out_features=1024, bias=True)
        (fc2): Linear(in_features=1024, out_features=6144, bias=True)
        (globalAvgPool2048): AvgPool1d(kernel_size=(2048,), stride=(1,), padding=(0,))
        (globalAvgPool8): AvgPool1d(kernel_size=(8,), stride=(1,), padding=(0,))
        (fc1_0_1): Linear(in_features=128, out_features=8, bias=True)
        (fc1_0_2): Linear(in_features=8, out_features=128, bias=True)
        (fc2_0_1): Linear(in_features=128, out_features=8, bias=True)
        (fc2_0_2): Linear(in_features=8, out_features=128, bias=True)
        (sigmoid): Sigmoid()
      )
    )
    (score): Linear(in_features=256, out_features=1, bias=True)
  )
  (proposal_target_layer): ProposalTargetLayer()
)
2019-11-27 00:02:51,669 [MainThread  ] [INFO ]  ==> Loading part model from checkpoint '/media/fengzicai/fzc/3Dsiamesetracker/output/siamese/default/three_gussion_ckpt/checkpoint_epoch_14.pth'
2019-11-27 00:02:51,766 [MainThread  ] [INFO ]  ==> Done (loaded 22/22)
2019-11-27 00:02:51,769 [MainThread  ] [INFO ]  ---- EPOCH 1 JOINT EVALUATION ----
…
